手写体数字识别/model.pth (torch, 90344 bytes, 8 tensors)

conv1.weight f4 [10, 1, 5, 5]
0.08975898 -0.17703828 -0.3017453 -0.25007194 -0.3409528 0.19748504 0.040159244 -0.005178304
-0.070708625 -0.13881357 0.17908825 0.3335952 0.40773544 0.24405289 0.09315773 -0.06245419
0.19568768 0.24678564 0.40761554 0.23399088 -0.3192916 -0.3623813 -0.3340576 -0.27592358
-0.10315683 0.15274031 0.26334456 -0.016607735 -0.4474967 -0.1840464 0.24372227 0.3523543
0.008847824 -0.40628645 -0.4023281 0.1498782 0.4237847 -0.17734955 -0.23895717 -0.34177613
0.37765074 0.113563955 0.07762582 -0.19968735 -0.26924622 0.26472124 0.13940825 0.1487956
-0.08460347 -0.08512642 -0.36824006 -0.2358913 0.056219697 0.040197577 0.34152493 -0.12213394
-0.0850186 0.05184079 0.36969218 0.15852123 -0.20305106 0.21231773 0.43995366 0.41781726
-0.2140064 0.06454069 0.17558567 0.2139333 -0.16982508 -0.3297872 0.09862377 -0.086763605
-0.03340048 -0.21297298 -0.16208832 0.21123467 0.33729425 0.31561396 -0.00032540166 0.20852438
-0.14642753 -0.060238145 0.11319596 0.093765475 0.2385505 -0.17021105 -0.2192898 0.072696894
-0.014747269 0.16505122 0.044438157 -0.27357137 -0.15680385 -0.061176572 -0.19643568 -0.05513751
0.009564716 -0.15112594 -0.22971742 -0.15996951 0.33529922 0.100668214 0.18578325 0.06558073
-0.20706297 -0.18215096 0.30489427 0.08813135 0.058569577 -0.008216549 -0.014974354 0.35781613
0.2877457 -0.13641867 0.072342455 0.09914596 0.3281747 0.2822826 0.020055864 0.014234084
-0.17107433 0.08955858 0.33447537 0.03315782 0.23632093 -0.18125147 -0.33494532 -0.18510506
0.19372626 0.3456427 -0.15444362 0.08372855 0.29140282 0.37519947 0.19202079 0.23194985
0.21755989 0.06196302 -0.08595886 -0.22910553 0.0055670207 -0.041520316 -0.2530801 0.021717716
0.08024295 0.0045926133 0.02283887 0.025431354 0.17343704 0.22539397 -0.08233025 0.08604278
-0.13610092 -0.06611275 -0.23987898 -0.19765359 -0.24793012 -0.19572653 0.093293615 -0.08184578
-0.18783568 0.040196385 0.052519705 0.10714587 -0.115575425 0.07986619 -0.048195783 -0.03813052
-0.17096587 -0.009523214 0.05533488 0.16086788 0.119844265 0.19608238 0.41915396 0.09890122
0.17416956 0.1317805 -0.14607275 0.21885458 -0.21942928 -0.2175422 -0.41622037 -0.37503132
-0.38352185 0.14889075 -0.25048766 -0.31986758 -0.23839226 -0.24888459 0.26200718 0.16265574
0.11825699 0.11276778 0.27995163 0.025751088 0.4336957 0.5302375 0.44392392 0.045968033
-6.823904e-05 -0.1372713 0.25774536 0.05290755 0.15154648 -0.060880005 -0.07307223 0.04818119
0.2549846 0.30115095 -0.021759456 -0.039555635 -0.23630634 0.23736247 0.4037616 0.055505384
-0.010716144 -0.28030896 -0.1421156 0.31234428 -0.3986096 -0.09743425 -0.41103274 -0.37866983
0.03539853 -0.1948624 -0.05214047 0.28428423 0.37818778 0.37674835 -0.13739456 -0.20572284
0.29652387 0.15268062 0.112214044 -0.07933314 -0.22275178 0.17891683 0.2811611 -0.006088903
-0.26052627 -0.09782101 0.06438075 0.047169164 -0.07468785 -0.11974676 -0.3336861 -0.28795877
-0.24113838 0.013924143
00000000: 8ed3 b73d 8649 35be 5c7e 9abe 6e09 80be
00000010: 5e91 aebe 8539 4a3e 057e 243d c3ae a9bb
00000020: afcf 90bd 2525 0ebe e962 373e fdcc aa3e
00000030: b3c2 d03e 00e9 793e 7bc9 be3d f7cf 7fbd
00000040: 5a62 483e 60b5 7c3e fcb2 d03e 4e9b 6f3e
00000050: 307a a3be 0b8a b9be 9909 abbe db45 8dbe
00000060: e343 d3bd f567 1c3e 19d5 863e f20c 88bc
00000070: 4a1e e5be a976 3cbe 5592 793e c867 b43e
00000080: 77f6 103c c704 d0be f3fd cdbe ac79 193e
00000090: 4ffa d83e 1f9b 35be 30b1 74be 48fd aebe
000000a0: 705b c13e 3894 e83d 49fa 9e3d d77a 4cbe
000000b0: a4da 89be 8b89 873e 09c1 0e3e e05d 183e
000000c0: 9644 adbd c356 aebd f689 bcbe 7d8d 71be
000000d0: a046 663d 37a6 243d 5bdc ae3e 5c21 fabd
000000e0: 3b1e aebd 0257 543d 4b48 bd3e 6453 223e
000000f0: 9eec 4fbe d269 593e 9b41 e13e 25ec d53e
00000100: 7e24 5bbe e92d 843d bbcc 333e 5511 5b3e
00000110: a0e6 2dbe ded9 a8be 42fb c93d 1eb1 b1bd
00000120: f1ce 08bd 9715 5abe 7bfa 25be e74d 583e
00000130: d5b1 ac3e 2798 a13e ac9a aab9 6a87 553e
00000140: 19f1 15be 46bc 76bd 49d3 e73d 1d08 c03d
00000150: 9546 743e ce4b 2ebe 818d 60be 1ce2 943d
00000160: 889e 71bc 3003 293e c904 363d 8c11 8cbe
00000170: 3091 20be 4994 7abd 6f26 49be dfd7 61bd
00000180: 54b5 1c3c c2c0 1abe 0b3b 6bbe 0ccf 23be
00000190: 57ac ab3e 232b ce3d f73d 3e3e 314f 863d
000001a0: 5108 54be c885 3abe 1a1b 9c3e 367e b43d
000001b0: a7e6 6f3d b49e 06bc fe56 75bc ad33 b73e
000001c0: 6853 933e 56b1 0bbe 4828 943d 090d cb3d
000001d0: 8406 a83e 5887 903e 324c a43c 1336 693c
000001e0: 1c2e 2fbe 7d6a b73d 5b40 ab3e 7fd0 073d
000001f0: 1dfe 713e fc99 39be f47d abbe 2e8c 3dbe
00000200: 2d60 463e 14f8 b03e 7826 1ebe e079 ab3d
00000210: c032 953e 251a c03e 19a1 443e 4384 6d3e
00000220: 05c8 5e3e f0cc 7d3d 330b b0bd a49a 6abe
00000230: 8e6b b63b 3511 2abd b793 81be 5ae9 b13c
00000240: 6a56 a43d a27d 963b 9518 bb3c 6a55 d03c
00000250: 7b99 313e adcd 663e c39c a8bd 3237 b03d
00000260: 0a5e 0bbe 1f66 87bd d6a2 75be b465 4abe
00000270: 65e1 7dbe 896c 48be b910 bf3d c39e a7bd
00000280: ff57 40be f7a4 243d e71e 573d 4b6f db3d
00000290: cfb2 ecbd e390 a33d f168 45bd c02e 1cbd
000002a0: ad11 2fbe 4107 1cbc d4a6 623d 8dba 243e
000002b0: e970 f53d d2c9 483e 599b d63e b98c ca3d
000002c0: 8159 323e 78f1 063e 1894 15be 6a1b 603e
000002d0: 12b2 60be 62c3 5ebe d61a d5be 1b04 c0be
000002e0: fa5c c4be d176 183e eb3f 80be afc5 a3be
000002f0: 1a1d 74be 9adb 7ebe ce25 863e 3a8f 263e
00000300: b930 f23d cbf2 e63d d255 8f3e f2f3 d23c
00000310: 5d0d de3e a5bd 073f ff49 e33e fa48 3c3d
00000320: 8e1b 8fb8 d990 0cbe 33f7 833e 96b5 583d
00000330: 002f 1b3e 505d 79bd e5a6 95bd a459 453d
00000340: 578d 823e 7530 9a3e e340 b2bc 1705 22bd
00000350: 4afa 71be 260f 733e d7b9 ce3e 9d59 633d
00000360: c492 2fbc a884 8fbe c086 11be 97eb 9f3e
00000370: 8f16 ccbe 9c8b c7bd e272 d2be 03e1 c1be
00000380: 0dfe 103d 028a 47be 3f91 55bd b48d 913e
00000390: d4a1 c13e 29e5 c03e 29b1 0cbe 02a9 52be
000003a0: fad1 973e 4f58 1c3e 7ad0 e53d 6a79 a2bd
000003b0: 0b19 64be f935 373e 59f4 8f3e 6c85 c7bb
000003c0: b363 85be 6256 c8bd 0eda 833d 7434 413d
000003d0: f2f5 98bd ca3d f5bd e8d8 aabe 556f 93be
000003e0: fbec 76be 1722 643c

conv1.bias f4 [10]
-0.019505663 -0.08947041 -0.08008987 0.053982817 0.18580794 0.043553237 0.085576475 0.064874545
-0.026767248 0.020117478
00000000: 57ca 9fbc 433c b7bd 2806 a4bd 161d 5d3d
00000010: 7044 3e3e e164 323d b842 af3d f2dc 843d
00000020: fd46 dbbc 69cd a43c

conv2.weight f4 [20, 10, 5, 5]
0.013515927 0.020872375 -0.124354 -0.003555456 0.039201755 0.0012982511 0.04420876 -0.07502719
0.07483092 0.06353116 0.075822055 0.06638365 0.05549775 0.101989076 0.07982094 0.017552597
0.037476238 0.074995495 0.030324219 0.01710572 -0.010352511 0.047863226 0.06262696 0.017776422
-0.072409816 0.025600959 -0.040167253 0.013551014 0.030174829 0.0048097493 -0.014364899 -0.06314671
0.0770371 0.0016170269 -0.035801798 -0.08545076 0.008794655 -0.012865566 -0.07982605 -0.09841483
-0.04864009 0.039953005 -0.035746206 -0.06964915 -0.12354917 -0.009591231 0.07652097 0.037982777
-0.06825614 -0.07911679 0.023464283 -0.050035853 0.045658063 0.0051716315 0.10871736 -0.077343345
0.054388892 0.084591374 0.08342735 0.035639875 -0.018059626 0.008050175 0.07462606 0.0791875
0.011196376 -0.1107653 -0.068003036 0.016259577 -0.0878951 0.00860715 -0.04123953 -0.096097246
-0.076477155 -0.04793471 0.0117697995 0.009755602 -0.05723309 -0.053212136 -0.014520755 -0.014900963
-0.03658772 -0.0418553 -0.059749052 0.051760927 -0.0005356677 -0.015081028 -0.011101141 -0.033840027
-0.061108302 -0.018345354 0.056334198 0.07120283 0.018197116 -0.027965954 0.06570025 0.055381052
0.11683518 0.07554906 0.07110281 -0.0107824635 -0.0022441726 -0.10317014 0.04709145 0.04683882
0.07130275 -0.020616919 -0.10492344 -0.034878064 0.06310105 -0.0011983918 -0.022089547 0.05820734
0.028437331 -0.0048827617 -0.024464872 -0.0054531028 -0.073830426 0.041247617 -0.029603075 -0.12115205
0.017881101 -0.09405359 -0.05077288 -0.04509264 -0.07559662 0.035060897 0.013635161 0.13295463
0.07068727 -0.02645663 -0.01719979 0.06851683 0.07011271 0.03881319 0.088660434 -0.0013923019
0.07083682 0.07144207 0.10822349 0.02444474 -0.10599207 0.031651676 0.028704224 -0.0216585
-0.07912138 -0.10563769 -0.080538936 -0.08165066 0.026508233 -0.04728898 -0.018577507 -0.016671527
0.03425538 -0.022957193 0.047013927 0.067142576 -0.025993234 0.09497249 -0.022244219 -0.0148101915
-0.058448266 0.063748695 0.042167954 0.048563704 -0.041548826 0.032143187 -0.034119062 -0.028852174
0.014943881 -0.031288754 0.019011563 -0.02624814 0.04469864 0.04297891 -0.01389762 -0.042728215
0.03906468 -0.065216616 0.017189428 0.12663075 -0.00033720967 0.10592468 -0.07174091 0.058730993
0.07975881 -0.0138554005 -0.03590876 0.0113127595 -0.010393235 0.045969106 0.060147345 0.06583723
0.115376234 0.154071 0.1565687 0.064817615 0.03525356 0.07547501 0.09864191 -0.116860874
-0.0044651674 -0.059012115 0.002952903 -0.009155301 -0.073867455 0.04339142 -0.044863567 -0.06259526
0.02525891 0.010616594 0.013663575 0.02010583 0.071270496 0.06250976 0.0519159 0.037253417
-0.009988929 0.059189063 -0.047729522 -0.19840617 0.0013487592 -0.03706255 0.02400104 -0.052997835
-0.10978692 0.030419257 -0.08704068 0.099962234 0.0044305874 -0.035219252 0.014805572 -0.0013478557
0.009928609 -0.09567395 -0.029247494 -0.0016894893 0.048213597 -0.023776557 -0.04132994 0.03474809
-0.0872477 0.0048314813 0.032792404 -0.012472167 -0.067175046 -0.103133135 -0.022960842 -0.03104325
0.008791594 -0.120033585 -0.022551628 0.026805691 -0.063964576 0.008823753 0.045646656 -0.08413354
00000000: e871 5d3c 8bfc aa3c 4fad febd a702 69bb
00000010: 0592 203d 142a aa3a 3f14 353d dba7 99bd
00000020: f440 993d a01c 823d 9848 9b3d 27f4 873d
00000030: 9c51 633d a6df d03d 2979 a33d 77ca 8f3c
00000040: af80 193d 3d97 993d 7f6a f83c 4b21 8c3c
00000050: 949d 29bc 3b0c 443d 9042 803d dc9f 913c
00000060: 994b 94bd 1ab9 d13c 6b86 24bd 1205 5e3c
00000070: 3431 f73c 1a9b 9d3b c15a 6bbc 1053 81bd
00000080: a1c5 9d3d 6bf2 d33a e8a4 12bd cf00 afbd
00000090: 7517 103c 18ca 52bc d77b a3bd b78d c9bd
000000a0: d53a 47bd c3a5 233d 9d6a 12bd 37a4 8ebd
000000b0: 5907 fdbd 8a24 1dbc 07b7 9c3d d493 1b3d
000000c0: e0c9 8bbd fc07 a2bd 2b38 c03c 65f2 4cbd
000000d0: f303 3b3d ca76 a93b 35a7 de3d 3066 9ebd
000000e0: e3c6 5e3d 3e3e ad3d f5db aa3d 1efb 113d
000000f0: c8f1 93bc e2e4 033c 8cd5 983d 0e2d a23d
00000100: 0171 373c ebd8 e2bd 2d45 8bbd ce32 853c
00000110: 5902 b4bd 0105 0d3c c8ea 28bd a2ce c4bd
00000120: 0ea0 9cbd 3057 44bd 1ed6 403c f6d5 1f3c
00000130: 3f6d 6abd f8f4 59bd 76e8 6dbc 2b23 74bc
00000140: 01dd 15bd 7770 2bbd 6cbb 74bd 4403 543d
00000150: 0d6c 0cba 6b16 77bc 8fe1 35bc d79b 0abd
00000160: b34c 7abd ff48 96bc b0be 663d cad2 913d
00000170: 1e12 953c db18 e5bc da8d 863d 3ed7 623d
00000180: 4847 ef3d 77b9 9a3d 5a9e 913d eea8 30bc
00000190: f812 13bb de4a d3bd f7e2 403d 10da 3f3d
000001a0: 2d07 923d d0e4 a8bc 1ae2 d6bd 4ddc 0ebd
000001b0: 203b 813d 5b13 9dba 23f5 b4bc d26a 6e3d
000001c0: 68f5 e83c 93ff 9fbb 8e6a c8bc f1af b2bb
000001d0: 6834 97bd 43f3 283d 2682 f2bc 911e f8bd
000001e0: 637b 923c 2b9f c0bd 39f7 4fbd 0fb3 38bd
000001f0: 67d2 9abd 049c 0f3d 0366 5f3c 4225 083e
00000200: 7dc4 903d 93bb d8bc 93e6 8cbc 8d52 8c3d
00000210: 4197 8f3d 94fa 1e3d 9a93 b53d e67d b6ba
00000220: e512 913d 3850 923d 47a4 dd3d 5640 c83c
00000230: 5f12 d9bd 30a5 013d 1f25 eb3c 2b6d b1bc
00000240: 640a a2bd 9358 d8bd 99f1 a4bd 7638 a7bd
00000250: cb27 d93c 17b2 41bd db2f 98bc ba92 88bc
00000260: 5f4f 0c3d b910 bcbc ad91 403d 0c82 893d
00000270: c3ef d4bc f080 c23d 8239 b6bc 72a6 72bc
00000280: 7367 6fbd ad8e 823d 4eb8 2c3d bcea 463d
00000290: 1a2f 2abd 93a8 033d 6ec0 0bbd 655b ecbc
000002a0: 2ed7 743c a328 00bd 23be 9b3c 5706 d7bc
000002b0: ec15 373d a70a 303d d8b2 63bc c803 2fbd
000002c0: 4902 203d 4a90 85bd d8d0 8c3c 7eab 013e
000002d0: 84cb b0b9 0aef d83d e6ec 92bd e98f 703d
000002e0: 9658 a33d c301 63bc 1015 13bd 2759 393c
000002f0: 6348 2abc 1a4a 3c3d 105d 763d abd5 863d
00000300: 604a ec3d cac4 1d3e 8c53 203e 19bf 843d
00000310: 0966 103d a492 9a3d c504 ca3d c154 efbd
00000320: 8a50 92bb b0b6 71bd 7e85 413b 1e00 16bc
00000330: d247 97bd 34bb 313d dcc2 37bd f231 80bd
00000340: c6eb ce3c 39f1 2d3c 30dd 5f3c fbb4 a43c
00000350: 44f6 913d 1e05 803d c4a5 543d 0a97 183d
00000360: 9ba8 23bc 3b70 723d 0880 43bd fd2a 4bbe
00000370: d9c8 b03a e7ce 17bd d49d c43c 4214 59bd
00000380: f7d7 e0bd ce31 f93c 6242 b2bd 00b9 cc3d
00000390: 762e 913b 1042 10bd 1293 723c 88aa b0ba
000003a0: 9bab 223c b4f0 c3bd 7198 efbc db71 ddba
000003b0: 9f7b 453d 0ec7 c2bc 9549 29bd 0354 0e3d
000003c0: ecae b2bd 6751 9e3b 5451 063d 0f58 4cbc
000003d0: 1293 89bd 7737 d3bd 6018 bcbc 6a4e febc
000003e0: 9e0a 103c 2bd4 f5bd 31be b8bc 9c97 db3c
000003f0: dcff 82bd 8191 103c fdf7 3a3d 354e acbd

conv2.bias f4 [20]
0.031866767 -0.028151758 0.044594128 -0.028790826 -0.01580691 -0.026893754 -0.035838123 -0.01361501
-0.06089695 -0.015551596 0.044236895 -0.06463943 -0.06221058 0.062219065 -0.029933037 -0.08695173
-0.0142289605 -0.07650547 -0.052178115 0.030263096
00000000: ba86 023d 849e e6bc 55a8 363d bdda ebbc
00000010: 7e7d 81bc 4a50 dcbc ffca 12bd 7e11 5fbc
00000020: 156f 79bd 1fcc 7ebc bf31 353d ad61 84bd
00000030: 85d0 7ebd 6bd9 7e3d 2136 f5bc c013 b2bd
00000040: 9620 69bc e6ae 9cbd b8b8 55bd 50ea f73c

fc1.weight f4 [50, 320]
-0.04431321 0.034390148 0.03511531 0.08689669 0.04577471 -0.0063743293 0.030711662 0.014816836
-0.030150386 -0.010248957 -0.015215453 -0.032347225 0.031137068 -0.077312596 -0.0035680032 -0.026463076
-0.027809372 -0.006449057 -0.05352492 0.0032520387 0.054067444 -0.0024584616 0.015143353 -0.06943066
0.020338595 -0.0070941728 0.021528037 0.009306851 -0.0063619018 -0.08381101 0.019085929 0.037374694
-0.03889673 5.4613538e-05 -0.02606208 -0.056203008 0.025463024 0.03594502 0.00772336 0.087520875
0.0696756 0.016054781 -0.011916594 0.0065468997 -0.020404095 -0.019811222 0.03719459 -0.08789194
0.037263516 0.0302559 -0.0012681584 0.016143836 -0.013254143 0.0397408 -0.0045158234 0.032120097
-0.013373455 -0.027414745 0.0056684217 -0.06308144 -0.008683659 -0.017376687 0.008688087 -0.09151439
-0.01933437 -0.009629616 -0.06274924 -0.07857453 0.021088867 -0.0070475247 -0.06701669 -0.0247705
0.011128889 -0.012351317 0.03353643 0.07806542 0.0027774682 0.027828421 0.047022793 0.033131123
-0.019890597 0.04268702 -0.033639222 -0.10101532 -0.016411934 0.014247033 -0.046960827 -0.041698877
0.013929309 0.019284973 0.007510955 -0.009594889 -0.0045178924 0.053217914 0.09340041 0.0038582196
0.013005555 0.013971538 -0.04625244 -0.053758603 0.008131378 -0.028876206 -0.061658952 0.054535035
0.009139461 -0.04923102 0.051503323 0.060707416 0.08392749 0.02806459 0.040245526 0.055593535
-0.013120477 0.0018519659 0.10336625 0.053009767 0.0017333697 -0.01693113 -0.0047073816 0.054349475
0.040302064 -0.013016126 -0.077750206 -0.0032628598 0.03401725 -0.036040273 -0.053927526 -0.026524054
-0.061358377 0.005967687 0.07449299 0.02710873 -0.021325123 0.04368508 0.07886163 0.057174552
0.059525944 -0.012014392 -0.039033234 -0.027638482 -0.00013428544 0.044294104 -0.06663719 -0.09761228
-0.020773891 -0.08142713 -0.098573335 -0.048884597 0.0757478 0.02321241 -0.029387144 -0.037925955
0.044576947 -0.0039434917 -0.019538632 0.0483618 0.049924187 0.0700197 0.036814824 0.05843971
0.011924666 -0.03634186 -0.07070399 -0.017654732 0.0028815267 -0.054925505 0.0762384 0.025502441
-0.10934189 -0.02768082 0.014373824 0.04811021 0.027040398 0.0138630085 0.07191522 -0.034937833
-0.04700753 -0.12861279 -0.12901583 -0.103541546 0.026136352 0.06377118 -0.0049017454 -0.10874089
0.020362202 0.009202509 0.0076249423 -0.009999273 0.03625891 0.0529888 -0.01341849 0.066896886
-0.030400343 0.0029468273 -0.0035437704 0.032204017 0.028845977 0.04810643 0.0030538142 0.02403818
0.013813494 -0.055023406 -0.007226506 0.018795181 -0.027133474 -0.0069454303 0.035553277 -0.007422035
-0.043270446 0.068977125 0.046344843 0.02501173 0.008422527 -0.01712046 0.027977206 -0.01914093
-0.109328516 0.0038084523 -0.031671762 -0.079938166 -0.08078486 0.027786285 0.03738149 -0.12726504
0.04725193 -0.048601296 -0.14184427 -0.13091877 0.020861616 -0.06670191 -0.07461582 -0.01997316
-0.014671985 0.049575567 0.04785624 0.010189354 0.023202091 0.03366937 0.039272103 0.035214767
-0.03132384 -0.038462922 -0.12643982 -0.114183255 -0.047885798 -0.01891334 0.04495544 0.024687188
0.07409689 0.07374364 0.042851496 0.019974804 0.05901578 -0.044367038 -0.01659588 -0.0091761965
00000000: c581 35bd afdc 0c3d 12d5 0f3d e4f6 b13d
00000010: 437e 3b3d c0df d0bb 0697 fb3c 51c2 723c
00000020: f1fd f6bc 3eeb 27bc 3c4a 79bc 867e 04bd
00000030: 2a13 ff3c 1156 9ebd 29d5 69bb 18c9 d8bc
00000040: 7bd0 e3bc 9c52 d3bb f23c 5bbd 2820 553b
00000050: d375 5d3d 241e 21bb d31b 783c a931 8ebd
00000060: 209d a63c 3c76 e8bb 915b b03c c37b 183c
00000070: 8077 d0bb 1ba5 abbd 185a 9c3c 3516 193d
00000080: 2d52 1fbd d710 6538 2580 d5bc 2035 66bd
00000090: d597 d03c 163b 133d 3d14 fd3b 253e b33d
000000a0: 15b2 8e3d 5185 833c d13d 43bc 6087 d63b
000000b0: 7d26 a7bc 254b a2bc 5b59 183d b000 b4bd
000000c0: a1a1 183d 39db f73c 5638 a6ba 1440 843c
000000d0: e827 59bc 40c7 223d 79f9 93bb 5d90 033d
000000e0: 561c 5bbc e394 e0bc 2bbe b93b d830 81bd
000000f0: e845 0ebc 8e59 8ebc 7a58 0e3c e66b bbbd
00000100: 1d63 9ebc 89c5 1dbc ac82 80bd afeb a0bd
00000110: 8fc2 ac3c ecee e6bb 0c40 89bd 81eb cabc
00000120: f255 363c 2e5d 4abc 7f5d 093d c3e0 9f3d
00000130: 2f06 363b 6ef8 e33c f99a 403d 80b4 073d
00000140: 9bf1 a2bc 96d8 2e3d 48c9 09bd 1fe1 cebd
00000150: 5272 86bc 636c 693c ff59 40bd 71cc 2abd
00000160: c237 643c 85fb 9d3c 751e f63b e233 1dbc
00000170: d40a 94bb 07fb 593d b748 bf3d 2fda 7c3b
00000180: 4015 553c e1e8 643c 3373 3dbd fb31 5cbd
00000190: 7939 053c cb8d ecbc 198e 7cbd 2160 5f3d
000001a0: aebd 153c 77a6 49bd 26f5 523d 57a8 783d
000001b0: 2de2 ab3d b6e7 e53c 7ed8 243d 0cb6 633d
000001c0: 45f7 56bc aabd f23a afb1 d33d c520 593d
000001d0: 3c32 e33a 27b3 8abc 6140 9abb 8e9d 5e3d
000001e0: c713 253d 9741 55bc 803b 9fbd b4d5 55bb
000001f0: ac55 0b3d f79e 13bd 1ce3 5cbd f948 d9bc
00000200: ec52 7bbd 968c c33b c88f 983d 2113 de3c
00000210: 06b2 aebc 20ef 323d 3582 a13d dd2f 6a3d
00000220: 7ad1 733d 03d8 44bc 50e1 1fbd 196a e2bc
00000230: f9ce 0cb9 bc6d 353d 1479 88bd f2e8 c7bd
00000240: 022e aabc 44c3 a6bd d1e0 c9bd 373b 48bd
00000250: aa21 9b3d f427 be3c 4fbd f0bc 3f58 1bbd
00000260: 5196 363d 6838 81bb 7b0f a0bc 0617 463d
00000270: 4e7d 4c3d 7d66 8f3d 24cb 163d 7a5e 6f3d
00000280: ad5f 433c 34db 14bd 41cd 90bd a8a0 90bc
00000290: ffd7 3c3b 91f9 60bd e122 9c3d 7fea d03c
000002a0: a4ee dfbd e3c2 e2bc 3080 6b3c 360f 453d
000002b0: d383 dd3c ac21 633c 4948 933d f91a 0fbd
000002c0: f88a 40bd 12b3 03be ba1c 04be 970d d4bd
000002d0: e71b d63c 779a 823d d29e a0bb 8bb3 debd
000002e0: a2ce a63c 1fc6 163c a7da f93b fed3 23bc
000002f0: 3984 143d c90a 593d 3ad9 5bbc 3c01 893d
00000300: 240a f9bc 8f1f 413b 9a3e 68bb 5ce8 033d
00000310: 664e ec3c 3f0b 453d 8022 483b b8eb c43c
00000320: fe51 623c 3960 61bd 53cc ecbb 5af8 993c
00000330: 0547 debc 7e96 e3bb 50a0 113d 8b34 f3bb
00000340: 5a3c 31bd e143 8d3d 17d4 3d3d 66e5 cc3c
00000350: a4fe 093c 3540 8cbc 7430 e53c 71cd 9cbc
00000360: a1e7 dfbd 3a97 793b 40ba 01bd 9fb6 a3bd
00000370: 8872 a5bd 10a0 e33c 551d 193d c451 02be
00000380: 3d8b 413d 2712 47bd a03f 11be 920f 06be
00000390: fbe5 aa3c 039b 88bd 2ed0 98bd c19e a3bc
000003a0: c462 70bc c00f 4b3d e804 443d 40f1 263c
000003b0: 5012 be3c e5e8 093d c9db 203d 5c3d 103d
000003c0: 6d4d 00bd 4c8b 1dbd 7179 01be e9d8 e9bd
000003d0: e623 44bd 26f0 9abc 3223 383d c93c ca3c
000003e0: 1cc0 973d e806 973d 0d85 2f3d 33a2 a33c
000003f0: 88ba 713d 36ba 35bd 15f4 87bc c257 16bc

fc1.bias f4 [50]
0.06681041 0.05691655 0.017087042 0.0036558725 0.030908933 -0.00037286856 0.011013867 -0.032081433
0.05701112 0.027652098 0.024537282 0.07918002 -0.016782833 0.022468364 0.025246788 -0.027552882
0.0758992 0.04777764 0.08125961 -0.008718509 0.047671743 0.04606469 -0.02470495 0.053286985
0.05992319 0.0017703809 0.09280892 -0.008511386 -0.02423157 -0.010290204 -0.0142133655 0.057820566
0.033462144 -0.01899654 -0.024592327 0.118322894 0.034522068 -0.058341697 0.05165052 -0.03765883
0.031704184 0.089077935 0.043561455 -0.027516287 -0.004467398 0.050544176 -0.02395658 -0.033015035
0.05755608 0.066377334
00000000: e5d3 883d 5421 693d 20fa 8b3c 5d97 6f3b
00000010: bb34 fd3c 927d c3b9 8273 343c d267 03bd
00000020: 7e84 693d a786 e23c 6902 c93c 2229 a23d
00000030: 277c 89bc 930f b83c 5ad2 ce3c 95b6 e1bc
00000040: 0a71 9b3d 7db2 433d 706b a63d 14d8 0ebc
00000050: 7243 433d 54ae 3c3d 0962 cabc 7443 5a3d
00000060: 0572 753d 200c e83a 9a12 be3d 5773 0bbc
00000070: 4981 c6bc 3e98 28bc 2ddf 68bc 42d5 6c3d
00000080: 9a0f 093d a29e 9bbc d975 c9bc 4653 f23d
00000090: 0367 0d3d b4f7 6ebd 7f8f 533d 2540 1abd
000000a0: 3fdc 013d 7e6e b63d 7f6d 323d d669 e1bc
000000b0: 4063 92bb 6907 4f3d 9740 c4bc c63a 07bd
000000c0: edbf 6b3d d7f0 873d

fc2.weight f4 [10, 50]
0.1936745 -0.14461991 0.2019746 0.15494701 -0.17699781 -0.005847744 -0.20394844 -0.10724538
-0.17278488 -0.16358489 -0.26089177 -0.15665263 -0.16333887 0.1598342 0.28925765 0.1875036
-0.029176742 0.27057043 0.17006849 -0.18708895 -0.14549781 -0.18399113 -0.13385238 -0.30514017
-0.17966978 -0.24192722 -0.23255634 -0.24567087 -0.032658406 0.20478904 -0.17103545 -0.14764386
0.22474048 0.1580456 -0.20092191 0.22620942 0.12277042 0.068839096 -0.10749616 -0.14615348
-0.14114809 -0.19241884 0.27879474 -0.16492316 0.11370456 0.23923756 -0.13376689 -0.07445067
0.20121807 -0.05518698 -0.13316171 0.19424993 -0.20964396 0.056084316 0.20170443 0.17452411
-0.25003883 0.034513585 -0.05394754 -0.15467846 0.18662465 0.24787493 -0.16460946 -0.2220377
-0.059049137 -0.25008616 0.2155011 -0.11221773 -0.24604487 0.103417814 -0.23632362 -0.044465467
0.21212687 0.18870984 0.17334701 -0.25266892 -0.30955562 0.24704188 0.18525086 -0.009692316
0.14706838 -0.1454771 -0.19658436 -0.23578209 0.19830401 0.18649568 -0.14380454 -0.15309161
0.2085206 0.13776802 -0.116702415 0.03474529 -0.14959 -0.237366 0.15365092 -0.11946886
-0.18239355 0.21933973 -0.2899894 0.14631625 -0.12133496 -0.10225715 -0.0500936 0.0815284
-0.16526689 0.1896289 0.15255891 0.0753613 0.21560533 0.11669829 -0.13447542 0.25045186
0.06966507 0.15646349 0.2525409 0.119199686 -0.14375232 -0.108135805 -0.1581657 -0.22348835
-0.1013204 0.17974202 -0.067411 -0.21395022 -0.057637874 -0.07120082 -0.20465407 0.0064076656
-0.26647595 -0.015175116 -0.04483143 -0.07741311 0.13834205 -0.16176534 0.1886118 0.17684738
-0.07851526 -0.1120713 0.22916773 -0.03208119 0.15335418 0.2214746 -0.10348957 -0.022872271
0.1013741 0.2144484 -0.034651935 0.22565931 -0.1615264 0.16981076 -0.09498935 0.259947
0.18168639 -0.18537815 -0.07668035 -0.20283143 0.1465921 0.08056832 0.040759496 0.13193454
-0.072142914 0.25108904 -0.13927028 -0.03017171 0.11854777 -0.10087588 -0.22248685 0.008501473
-0.08155584 0.19139309 0.22786312 0.2666741 0.0052707116 -0.10036991 -0.22562248 -0.13798794
0.18988837 -0.10167924 0.24803053 -0.09985848 -0.26664943 0.2688991 -0.17601933 0.20607811
0.08430572 -0.004233165 0.20916764 -0.011205156 -0.18968692 -0.021719709 0.19314797 0.21895006
-0.15082464 0.13062009 0.15301193 -0.044124674 -0.090286404 -0.034058083 -0.12827395 0.16153137
-0.04049645 -0.023489427 -0.14385216 0.075212374 0.22518912 0.19772743 0.17996602 -0.19492167
-0.17049633 -0.1614227 0.22823034 -0.041284017 0.26349235 -0.20789951 -0.11939147 0.1830777
-0.05582448 -0.1948407 -0.15069012 -0.1844016 -0.13344409 -0.13262531 0.26615193 0.21726695
0.21554731 0.21093078 0.0791457 0.032002307 0.068459734 -0.11597254 0.16429524 0.23807201
-0.15477602 -0.2852797 -0.10293879 -0.1662997 -0.13954411 0.33533263 0.03400734 -0.0780251
-0.2225748 -0.15206552 0.096259795 0.033698756 -0.13305777 -0.04960883 -0.102557674 -0.1458685
0.20515753 -0.13731618 0.18657501 -0.1021694 -0.02953714 -0.24687424 -0.028546536 -0.12075673
00000000: 9c52 463e 3e17 14be 6ed2 4e3e 6eaa 1e3e
00000010: ea3e 35be 6f9e bfbb dcd7 50be 77a3 dbbd
00000020: 85ee 30be cc82 27be 9b93 85be 8c69 20be
00000030: 4e42 27be 94ab 233e 9419 943e f200 403e
00000040: 1004 efbc 3588 8a3e 6f26 2e3e 3f94 3fbe
00000050: 61fd 14be 2c68 3cbe 9910 09be 553b 9cbe
00000060: 5bfb 37be c5bb 77be 4023 6ebe 2591 7bbe
00000070: d2c4 05bd 38b4 513e eb23 2fbe f42f 17be
00000080: 5e22 663e b5d6 213e 79be 4dbe 71a3 673e
00000090: 0f6f fb3d 83fb 8c3d f226 dcbd 42a9 15be
000000a0: 2089 10be 7209 45be 2fbe 8e3e 9ee1 28be
000000b0: f0dd e83d b1fa 743e 30fa 08be 9879 98bd
000000c0: 1c0c 4e3e be0b 62bd 8b5b 08be 74e9 463e
000000d0: e8ac 56be abb8 653d 9b8b 4e3e 73b6 323e
000000e0: 1705 80be 1e5e 0d3d 18f8 5cbd 0864 1ebe
000000f0: 881a 3f3e edd2 7d3e 628f 28be da5d 63be
00000100: 82dd 71bd 4b0b 80be 52ac 5c3e 69d2 e5bd
00000110: 30f3 7bbe b8cc d33d d2fe 71be 6c21 36bd
00000120: c937 593e 273d 413e e181 313e d25d 81be
00000130: 137e 9ebe 8cf8 7c3e 67b2 3d3e 85cc 1ebc
00000140: 1899 163e f3f7 14be 694d 49be dc70 71be
00000150: 3510 4b3e b9f8 3e3e 7f41 13be 0cc4 1cbe
00000160: 6d86 553e 0f13 0d3e ad01 efbd 1451 0e3d
00000170: 1f2e 19be 1310 73be ab56 1d3e 17ac f4bd
00000180: 60c5 3abe 989a 603e 7e79 94be edd3 153e
00000190: 777e f8bd 326c d1bd f22e 4dbd 5df8 a63d
000001a0: b93b 29be 142e 423e 6738 1c3e 0657 9a3d
000001b0: a5c7 5c3e 83ff ee3d edb3 09be 3a3b 803e
000001c0: 8fac 8e3d f737 203e 0a4d 813e f71e f43d
000001d0: cf33 13be 4e76 ddbd 30f6 21be 21da 64be
000001e0: 1281 cfbd 4b0e 383e c70e 8abd c415 5bbe
000001f0: b115 6cbd bcd1 91bd d690 51be 65f7 d13b
00000200: 896f 88be 0da1 78bc 29a1 37bd c48a 9ebd
00000210: 8aa9 0d3e d0a5 25be 7423 413e 7b17 353e
00000220: 9ccc a0bd a385 e5bd f2aa 6a3e 9167 03bd
00000230: e108 1d3e 3dca 623e 57f2 d3bd a15e bbbc
00000240: 399d cf3d 5d98 5b3e 30ef 0dbd 3c13 673e
00000250: 2d67 25be dfe2 2d3e c789 c2bd c617 853e
00000260: ff0b 3a3e c5d3 3dbe 960a 9dbd 0bb3 4fbe
00000270: 3d1c 163e 0101 a53d 6ef3 263d d919 073e
00000280: aabf 93bd be8e 803e de9c 0ebe a92a f7bc
00000290: 2cc9 f23d 0398 cebd 98d3 63be c349 0b3c
000002a0: c006 a7bd 8dfc 433e f354 693e 8289 883e
000002b0: efb5 ac3b bd8e cdbd 9409 67be b64c 0dbe
000002c0: 1972 423e 353d d0bd b7fb 7d3e 9a82 ccbd
000002d0: 4686 88be 25ad 893e 693e 34be 2406 533e
000002e0: 7aa8 ac3d 5db6 8abb 0b30 563e d595 37bc
000002f0: 4a3d 42be 88ed b1bc 95c8 453e 7234 603e
00000300: c671 1abe 46c1 053e 29af 1c3e 13bc 34bd
00000310: 14e8 b8bd 7d80 0bbd 3f5a 03be 7b68 253e
00000320: 9bdf 25bd e66c c0bc fb4d 13be f208 9a3d
00000330: fa97 663e 0f79 4a3e 0349 383e 8c99 47be
00000340: 9796 2ebe fe4b 25be 37b5 693e 6e19 29bd
00000350: 78e8 863e 9ce3 54be 8483 f4bd b878 3b3e
00000360: 36a8 64bd 5284 47be 834e 1abe c6d3 3cbe
00000370: 91a5 08be eece 07be 1145 883e 3a7b 5e3e
00000380: 6fb8 5c3e 3dfe 573e 2417 a23d da14 033d
00000390: 9e34 8c3d 0383 edbd 033d 283e 26c9 733e
000003a0: 9b7d 1ebe 2e10 92be 93d1 d2bd 784a 2abe
000003b0: a7e4 0ebe b8b0 ab3e 484b 0b3d a0cb 9fbd
000003c0: a6ea 63be 10b7 1bbe db23 c53d b507 0a3d
000003d0: 4c40 08be a132 4bbd c209 d2bd 8d5e 15be
000003e0: d114 523e 9d9c 0cbe 850d 3f3e 313e d1bd
000003f0: dff7 f1bc 9acc 7cbe 6dda e9bc 4e4f f7bd

fc2.bias f4 [10]
0.035995353 0.08221158 -0.07256436 -0.14239684 0.026321635 0.09686163 -0.23393697 -0.118996985
0.18390103 -0.15580297
00000000: dd6f 133d 8b5e a83d a09c 94bd 7ad0 11be
00000010: 78a0 d73c 645f c63d 2c8d 6fbe b1b4 f3bd
00000020: 8d50 3c3e d08a 1fbe
